…
MobiSpectral scene 12 is loaded.
MobiSpectral scene 13 is loaded.
MobiSpectral scene 14 is loaded.
MobiSpectral scene 15 is loaded.
MobiSpectral scene 16 is loaded.
MobiSpectral scene 17 is loaded.
MobiSpectral scene 18 is loaded.
MobiSpectral scene 19 is loaded.
MobiSpectral scene 20 is loaded.
MobiSpectral scene 21 is loaded.
Validation set samples:  22
Parameters number is  7651254
----------------------------------------------------------------
        Layer (type)               Output Shape         Param #
================================================================
            Conv2d-1           [-1, 68, 64, 64]           1,836
            Conv2d-2           [-1, 68, 64, 64]          41,616
            Linear-3             [-1, 4096, 68]           4,624
            Linear-4             [-1, 4096, 68]           4,624
            Linear-5             [-1, 4096, 68]           4,624
            Linear-6             [-1, 4096, 68]           4,692
            Conv2d-7           [-1, 68, 64, 64]             612
              GELU-8           [-1, 68, 64, 64]               0
            Conv2d-9           [-1, 68, 64, 64]             612
           MS_MSA-10           [-1, 64, 64, 68]               0
        LayerNorm-11           [-1, 64, 64, 68]             136
           Conv2d-12          [-1, 272, 64, 64]          18,496
             GELU-13          [-1, 272, 64, 64]               0
           Conv2d-14          [-1, 272, 64, 64]           2,448
             GELU-15          [-1, 272, 64, 64]               0
           Conv2d-16           [-1, 68, 64, 64]          18,496
      FeedForward-17           [-1, 64, 64, 68]               0
          PreNorm-18           [-1, 64, 64, 68]               0
             MSAB-19           [-1, 68, 64, 64]               0
           Conv2d-20          [-1, 136, 32, 32]         147,968
           Linear-21            [-1, 1024, 136]          18,496
           Linear-22            [-1, 1024, 136]          18,496
           Linear-23            [-1, 1024, 136]          18,496
           Linear-24            [-1, 1024, 136]          18,632
           Conv2d-25          [-1, 136, 32, 32]           1,224
             GELU-26          [-1, 136, 32, 32]               0
           Conv2d-27          [-1, 136, 32, 32]           1,224
           MS_MSA-28          [-1, 32, 32, 136]               0
        LayerNorm-29          [-1, 32, 32, 136]             272
           Conv2d-30          [-1, 544, 32, 32]          73,984
             GELU-31          [-1, 544, 32, 32]               0
           Conv2d-32          [-1, 544, 32, 32]           4,896
             GELU-33          [-1, 544, 32, 32]               0
           Conv2d-34          [-1, 136, 32, 32]          73,984
      FeedForward-35          [-1, 32, 32, 136]               0
          PreNorm-36          [-1, 32, 32, 136]               0
             MSAB-37          [-1, 136, 32, 32]               0
           Conv2d-38          [-1, 272, 16, 16]         591,872
           Linear-39             [-1, 256, 272]          73,984
           Linear-40             [-1, 256, 272]          73,984
           Linear-41             [-1, 256, 272]          73,984
           Linear-42             [-1, 256, 272]          74,256
           Conv2d-43          [-1, 272, 16, 16]           2,448
             GELU-44          [-1, 272, 16, 16]               0
           Conv2d-45          [-1, 272, 16, 16]           2,448
           MS_MSA-46          [-1, 16, 16, 272]               0
        LayerNorm-47          [-1, 16, 16, 272]             544
           Conv2d-48         [-1, 1088, 16, 16]         295,936
             GELU-49         [-1, 1088, 16, 16]               0
           Conv2d-50         [-1, 1088, 16, 16]           9,792
             GELU-51         [-1, 1088, 16, 16]               0
           Conv2d-52          [-1, 272, 16, 16]         295,936
      FeedForward-53          [-1, 16, 16, 272]               0
          PreNorm-54          [-1, 16, 16, 272]               0
             MSAB-55          [-1, 272, 16, 16]               0
  ConvTranspose2d-56          [-1, 136, 32, 32]         148,104
           Conv2d-57          [-1, 136, 32, 32]          36,992
           Linear-58            [-1, 1024, 136]          18,496
           Linear-59            [-1, 1024, 136]          18,496
           Linear-60            [-1, 1024, 136]          18,496
           Linear-61            [-1, 1024, 136]          18,632
           Conv2d-62          [-1, 136, 32, 32]           1,224
             GELU-63          [-1, 136, 32, 32]               0
           Conv2d-64          [-1, 136, 32, 32]           1,224
           MS_MSA-65          [-1, 32, 32, 136]               0
        LayerNorm-66          [-1, 32, 32, 136]             272
           Conv2d-67          [-1, 544, 32, 32]          73,984
             GELU-68          [-1, 544, 32, 32]               0
           Conv2d-69          [-1, 544, 32, 32]           4,896
             GELU-70          [-1, 544, 32, 32]               0
           Conv2d-71          [-1, 136, 32, 32]          73,984
      FeedForward-72          [-1, 32, 32, 136]               0
          PreNorm-73          [-1, 32, 32, 136]               0
             MSAB-74          [-1, 136, 32, 32]               0
  ConvTranspose2d-75           [-1, 68, 64, 64]          37,060
           Conv2d-76           [-1, 68, 64, 64]           9,248
           Linear-77             [-1, 4096, 68]           4,624
           Linear-78             [-1, 4096, 68]           4,624
           Linear-79             [-1, 4096, 68]           4,624
           Linear-80             [-1, 4096, 68]           4,692
           Conv2d-81           [-1, 68, 64, 64]             612
             GELU-82           [-1, 68, 64, 64]               0
           Conv2d-83           [-1, 68, 64, 64]             612
           MS_MSA-84           [-1, 64, 64, 68]               0
        LayerNorm-85           [-1, 64, 64, 68]             136
           Conv2d-86          [-1, 272, 64, 64]          18,496
             GELU-87          [-1, 272, 64, 64]               0
           Conv2d-88          [-1, 272, 64, 64]           2,448
             GELU-89          [-1, 272, 64, 64]               0
           Conv2d-90           [-1, 68, 64, 64]          18,496
      FeedForward-91           [-1, 64, 64, 68]               0
          PreNorm-92           [-1, 64, 64, 68]               0
             MSAB-93           [-1, 68, 64, 64]               0
           Conv2d-94           [-1, 68, 64, 64]          41,616
              MST-95           [-1, 68, 64, 64]               0
           Conv2d-96           [-1, 68, 64, 64]          41,616
           Linear-97             [-1, 4096, 68]           4,624
           Linear-98             [-1, 4096, 68]           4,624
           Linear-99             [-1, 4096, 68]           4,624
          Linear-100             [-1, 4096, 68]           4,692
          Conv2d-101           [-1, 68, 64, 64]             612
            GELU-102           [-1, 68, 64, 64]               0
          Conv2d-103           [-1, 68, 64, 64]             612
          MS_MSA-104           [-1, 64, 64, 68]               0
       LayerNorm-105           [-1, 64, 64, 68]             136
          Conv2d-106          [-1, 272, 64, 64]          18,496
            GELU-107          [-1, 272, 64, 64]               0
          Conv2d-108          [-1, 272, 64, 64]           2,448
            GELU-109          [-1, 272, 64, 64]               0
          Conv2d-110           [-1, 68, 64, 64]          18,496
     FeedForward-111           [-1, 64, 64, 68]               0
         PreNorm-112           [-1, 64, 64, 68]               0
            MSAB-113           [-1, 68, 64, 64]               0
          Conv2d-114          [-1, 136, 32, 32]         147,968
          Linear-115            [-1, 1024, 136]          18,496
          Linear-116            [-1, 1024, 136]          18,496
          Linear-117            [-1, 1024, 136]          18,496
          Linear-118            [-1, 1024, 136]          18,632
          Conv2d-119          [-1, 136, 32, 32]           1,224
            GELU-120          [-1, 136, 32, 32]               0
          Conv2d-121          [-1, 136, 32, 32]           1,224
          MS_MSA-122          [-1, 32, 32, 136]               0
       LayerNorm-123          [-1, 32, 32, 136]             272
          Conv2d-124          [-1, 544, 32, 32]          73,984
            GELU-125          [-1, 544, 32, 32]               0
          Conv2d-126          [-1, 544, 32, 32]           4,896
            GELU-127          [-1, 544, 32, 32]               0
          Conv2d-128          [-1, 136, 32, 32]          73,984
     FeedForward-129          [-1, 32, 32, 136]               0
         PreNorm-130          [-1, 32, 32, 136]               0
            MSAB-131          [-1, 136, 32, 32]               0
          Conv2d-132          [-1, 272, 16, 16]         591,872
          Linear-133             [-1, 256, 272]          73,984
          Linear-134             [-1, 256, 272]          73,984
          Linear-135             [-1, 256, 272]          73,984
          Linear-136             [-1, 256, 272]          74,256
          Conv2d-137          [-1, 272, 16, 16]           2,448
            GELU-138          [-1, 272, 16, 16]               0
          Conv2d-139          [-1, 272, 16, 16]           2,448
          MS_MSA-140          [-1, 16, 16, 272]               0
       LayerNorm-141          [-1, 16, 16, 272]             544
          Conv2d-142         [-1, 1088, 16, 16]         295,936
            GELU-143         [-1, 1088, 16, 16]               0
          Conv2d-144         [-1, 1088, 16, 16]           9,792
            GELU-145         [-1, 1088, 16, 16]               0
          Conv2d-146          [-1, 272, 16, 16]         295,936
     FeedForward-147          [-1, 16, 16, 272]               0
         PreNorm-148          [-1, 16, 16, 272]               0
            MSAB-149          [-1, 272, 16, 16]               0
 ConvTranspose2d-150          [-1, 136, 32, 32]         148,104
          Conv2d-151          [-1, 136, 32, 32]          36,992
          Linear-152            [-1, 1024, 136]          18,496
          Linear-153            [-1, 1024, 136]          18,496
          Linear-154            [-1, 1024, 136]          18,496
          Linear-155            [-1, 1024, 136]          18,632
          Conv2d-156          [-1, 136, 32, 32]           1,224
            GELU-157          [-1, 136, 32, 32]               0
          Conv2d-158          [-1, 136, 32, 32]           1,224
          MS_MSA-159          [-1, 32, 32, 136]               0
       LayerNorm-160          [-1, 32, 32, 136]             272
          Conv2d-161          [-1, 544, 32, 32]          73,984
            GELU-162          [-1, 544, 32, 32]               0
          Conv2d-163          [-1, 544, 32, 32]           4,896
            GELU-164          [-1, 544, 32, 32]               0
          Conv2d-165          [-1, 136, 32, 32]          73,984
     FeedForward-166          [-1, 32, 32, 136]               0
         PreNorm-167          [-1, 32, 32, 136]               0
            MSAB-168          [-1, 136, 32, 32]               0
 ConvTranspose2d-169           [-1, 68, 64, 64]          37,060
          Conv2d-170           [-1, 68, 64, 64]           9,248
          Linear-171             [-1, 4096, 68]           4,624
          Linear-172             [-1, 4096, 68]           4,624
          Linear-173             [-1, 4096, 68]           4,624
          Linear-174             [-1, 4096, 68]           4,692
          Conv2d-175           [-1, 68, 64, 64]             612
            GELU-176           [-1, 68, 64, 64]               0
          Conv2d-177           [-1, 68, 64, 64]             612
          MS_MSA-178           [-1, 64, 64, 68]               0
       LayerNorm-179           [-1, 64, 64, 68]             136
          Conv2d-180          [-1, 272, 64, 64]          18,496
            GELU-181          [-1, 272, 64, 64]               0
          Conv2d-182          [-1, 272, 64, 64]           2,448
            GELU-183          [-1, 272, 64, 64]               0
          Conv2d-184           [-1, 68, 64, 64]          18,496
     FeedForward-185           [-1, 64, 64, 68]               0
         PreNorm-186           [-1, 64, 64, 68]               0
            MSAB-187           [-1, 68, 64, 64]               0
          Conv2d-188           [-1, 68, 64, 64]          41,616
             MST-189           [-1, 68, 64, 64]               0
          Conv2d-190           [-1, 68, 64, 64]          41,616
          Linear-191             [-1, 4096, 68]           4,624
          Linear-192             [-1, 4096, 68]           4,624
          Linear-193             [-1, 4096, 68]           4,624
          Linear-194             [-1, 4096, 68]           4,692
          Conv2d-195           [-1, 68, 64, 64]             612
            GELU-196           [-1, 68, 64, 64]               0
          Conv2d-197           [-1, 68, 64, 64]             612
          MS_MSA-198           [-1, 64, 64, 68]               0
       LayerNorm-199           [-1, 64, 64, 68]             136
          Conv2d-200          [-1, 272, 64, 64]          18,496
            GELU-201          [-1, 272, 64, 64]               0
          Conv2d-202          [-1, 272, 64, 64]           2,448
            GELU-203          [-1, 272, 64, 64]               0
          Conv2d-204           [-1, 68, 64, 64]          18,496
     FeedForward-205           [-1, 64, 64, 68]               0
         PreNorm-206           [-1, 64, 64, 68]               0
            MSAB-207           [-1, 68, 64, 64]               0
          Conv2d-208          [-1, 136, 32, 32]         147,968
          Linear-209            [-1, 1024, 136]          18,496
          Linear-210            [-1, 1024, 136]          18,496
          Linear-211            [-1, 1024, 136]          18,496
          Linear-212            [-1, 1024, 136]          18,632
          Conv2d-213          [-1, 136, 32, 32]           1,224
            GELU-214          [-1, 136, 32, 32]               0
          Conv2d-215          [-1, 136, 32, 32]           1,224
          MS_MSA-216          [-1, 32, 32, 136]               0
       LayerNorm-217          [-1, 32, 32, 136]             272
          Conv2d-218          [-1, 544, 32, 32]          73,984
            GELU-219          [-1, 544, 32, 32]               0
          Conv2d-220          [-1, 544, 32, 32]           4,896
            GELU-221          [-1, 544, 32, 32]               0
          Conv2d-222          [-1, 136, 32, 32]          73,984
     FeedForward-223          [-1, 32, 32, 136]               0
         PreNorm-224          [-1, 32, 32, 136]               0
            MSAB-225          [-1, 136, 32, 32]               0
          Conv2d-226          [-1, 272, 16, 16]         591,872
          Linear-227             [-1, 256, 272]          73,984
          Linear-228             [-1, 256, 272]          73,984
          Linear-229             [-1, 256, 272]          73,984
          Linear-230             [-1, 256, 272]          74,256
          Conv2d-231          [-1, 272, 16, 16]           2,448
            GELU-232          [-1, 272, 16, 16]               0
          Conv2d-233          [-1, 272, 16, 16]           2,448
          MS_MSA-234          [-1, 16, 16, 272]               0
       LayerNorm-235          [-1, 16, 16, 272]             544
          Conv2d-236         [-1, 1088, 16, 16]         295,936
            GELU-237         [-1, 1088, 16, 16]               0
          Conv2d-238         [-1, 1088, 16, 16]           9,792
            GELU-239         [-1, 1088, 16, 16]               0
          Conv2d-240          [-1, 272, 16, 16]         295,936
     FeedForward-241          [-1, 16, 16, 272]               0
         PreNorm-242          [-1, 16, 16, 272]               0
            MSAB-243          [-1, 272, 16, 16]               0
 ConvTranspose2d-244          [-1, 136, 32, 32]         148,104
          Conv2d-245          [-1, 136, 32, 32]          36,992
          Linear-246            [-1, 1024, 136]          18,496
          Linear-247            [-1, 1024, 136]          18,496
          Linear-248            [-1, 1024, 136]          18,496
          Linear-249            [-1, 1024, 136]          18,632
          Conv2d-250          [-1, 136, 32, 32]           1,224
            GELU-251          [-1, 136, 32, 32]               0
          Conv2d-252          [-1, 136, 32, 32]           1,224
          MS_MSA-253          [-1, 32, 32, 136]               0
       LayerNorm-254          [-1, 32, 32, 136]             272
          Conv2d-255          [-1, 544, 32, 32]          73,984
            GELU-256          [-1, 544, 32, 32]               0
          Conv2d-257          [-1, 544, 32, 32]           4,896
            GELU-258          [-1, 544, 32, 32]               0
          Conv2d-259          [-1, 136, 32, 32]          73,984
     FeedForward-260          [-1, 32, 32, 136]               0
         PreNorm-261          [-1, 32, 32, 136]               0
            MSAB-262          [-1, 136, 32, 32]               0
 ConvTranspose2d-263           [-1, 68, 64, 64]          37,060
          Conv2d-264           [-1, 68, 64, 64]           9,248
          Linear-265             [-1, 4096, 68]           4,624
          Linear-266             [-1, 4096, 68]           4,624
          Linear-267             [-1, 4096, 68]           4,624
          Linear-268             [-1, 4096, 68]           4,692
          Conv2d-269           [-1, 68, 64, 64]             612
            GELU-270           [-1, 68, 64, 64]               0
          Conv2d-271           [-1, 68, 64, 64]             612
          MS_MSA-272           [-1, 64, 64, 68]               0
       LayerNorm-273           [-1, 64, 64, 68]             136
          Conv2d-274          [-1, 272, 64, 64]          18,496
            GELU-275          [-1, 272, 64, 64]               0
          Conv2d-276          [-1, 272, 64, 64]           2,448
            GELU-277          [-1, 272, 64, 64]               0
          Conv2d-278           [-1, 68, 64, 64]          18,496
     FeedForward-279           [-1, 64, 64, 68]               0
         PreNorm-280           [-1, 64, 64, 68]               0
            MSAB-281           [-1, 68, 64, 64]               0
          Conv2d-282           [-1, 68, 64, 64]          41,616
             MST-283           [-1, 68, 64, 64]               0
          Conv2d-284           [-1, 68, 64, 64]          41,616
================================================================
Total params: 7,651,224
Trainable params: 7,651,224
Non-trainable params: 0
----------------------------------------------------------------
Input size (MB): 0.05
Forward/backward pass size (MB): 648.12
Params size (MB): 29.19
Estimated Total Size (MB): 677.36
----------------------------------------------------------------
None
[iter:20/100000],lr=0.000400000,train_losses.avg=0.553166091
…
